Model: "model_3"
_________________________________________________________________
Layer (type)                 Output Shape              Param #   
=================================================================
input_4 (InputLayer)         [(None, 28, 28, 1)]       0         
_________________________________________________________________
conv2d_9 (Conv2D)            (None, 28, 28, 32)        320       
_________________________________________________________________
max_pooling2d_6 (MaxPooling2 (None, 14, 14, 32)        0         
_________________________________________________________________
conv2d_10 (Conv2D)           (None, 14, 14, 32)        9248      
_________________________________________________________________
max_pooling2d_7 (MaxPooling2 (None, 7, 7, 32)          0         
_________________________________________________________________
conv2d_transpose_6 (Conv2DTr (None, 14, 14, 32)        9248      
_________________________________________________________________
conv2d_transpose_7 (Conv2DTr (None, 28, 28, 32)        9248      
_________________________________________________________________
conv2d_11 (Conv2D)           (None, 28, 28, 1)         289       
=================================================================
0;0.11648732423782349;7410.12646484375
1;0.11200306564569473;7410.12646484375
2;0.11200278997421265;7410.12646484375
3;0.11200259625911713;7410.12646484375
4;0.11200261116027832;7410.12646484375
5;0.11200259625911713;7410.12646484375
0;0.10883325338363647;7402.0126953125
1;0.09769994020462036;7401.4833984375
2;0.09634982794523239;7401.18310546875
…
