
Model: "autoencoder"
_________________________________________________________________
Layer (type)                 Output Shape              Param #   
=================================================================
img (InputLayer)             [(None, 28, 28, 1)]       0         
_________________________________________________________________
flatten_12 (Flatten)         (None, 784)               0         
_________________________________________________________________
dense_33 (Dense)             (None, 64)                50240     
_________________________________________________________________
dense_34 (Dense)             (None, 64)                4160      
_________________________________________________________________
dense_35 (Dense)             (None, 784)               50960     
_________________________________________________________________
reshape_12 (Reshape)         (None, 28, 28, 1)         0         
=================================================================
Total params: 105,360
Trainable params: 105,360
Non-trainable params: 0
_________________________________________________________________
epoch;loss;val_loss
0;0.024509510025382042;0.017025362700223923
1;0.01575404778122902;0.014947190880775452
2;0.014621016569435596;0.014284235425293446
3;0.014128807000815868;0.013954277150332928
…
